#map = affine_map<(d0) -> (d0)>
#map1 = affine_map<(d0) -> (d0 + 8)>
#map2 = affine_map<(d0) -> (d0 + 26)>
#map3 = affine_map<(d0) -> (d0 + 13)>
module {
  memref.global "private" constant @__constant_104x104xi32_0 : memref<104x104xi32> = dense<"…"> {alignment = 64 : i64}
  memref.global "private" constant @__constant_104x104xi32 : memref<104x104xi32> = dense<0> {alignment = 64 : i64}
  memref.global "private" constant @__constant_104x104xi8_0 : memref<104x104xi8> = dense<"…"> {alignment = 64 : i64}
  memref.global "private" constant @__constant_104x104xi8 : memref<104x104xi8> = dense<"…"> {alignment = 64 : i64}

func.func @matmul104x104(%arg0: memref<104x104xi8, strided<[?, ?], offset: ?>>, %arg1: memref<104x104xi8, strided<[?, ?], offset: ?>>, %arg2: memref<104x104xi32, strided<[?, ?], offset: ?>>) -> memref<104x104xi32, strided<[?, ?], offset: ?>> {
    affine.for %arg3 = 0 to 104 step 8 {
      affine.for %arg4 = 0 to 104 step 8 {
        affine.for %arg5 = 0 to 104 step 26 {
          affine.for %arg6 = #map(%arg3) to #map1(%arg3) {
            affine.for %arg7 = #map(%arg4) to #map1(%arg4) {
              affine.for %arg8 = #map(%arg5) to #map2(%arg5) step 13{ 
                affine.for %arg9 = #map(%arg8) to #map3(%arg8) {
                  %0 = affine.load %arg0[%arg6, %arg9] : memref<104x104xi8, strided<[?, ?], offset: ?>>
                  %1 = affine.load %arg1[%arg9, %arg7] : memref<104x104xi8, strided<[?, ?], offset: ?>>
                  %2 = affine.load %arg2[%arg6, %arg7] : memref<104x104xi32, strided<[?, ?], offset: ?>>
                  %3 = arith.extsi %0 : i8 to i32
                  %4 = arith.extsi %1 : i8 to i32
                  %5 = arith.muli %3, %4 : i32
                  %6 = arith.addi %2, %5 : i32
                  affine.store %6, %arg2[%arg6, %arg7] : memref<104x104xi32, strided<[?, ?], offset: ?>>
                }// end of hoodle for
              }
            }
          }
        }
      }
    }
    return %arg2 : memref<104x104xi32, strided<[?, ?], offset: ?>>
  }
  func.func @main() {
    %0 = memref.get_global @__constant_104x104xi8 : memref<104x104xi8>
    %1 = memref.get_global @__constant_104x104xi8_0 : memref<104x104xi8>
    %2 = memref.get_global @__constant_104x104xi32 : memref<104x104xi32>
    %alloc = memref.alloc() {alignment = 64 : i64} : memref<104x104xi32>
    memref.copy %2, %alloc : memref<104x104xi32> to memref<104x104xi32>
    %cast = memref.cast %0 : memref<104x104xi8> to memref<104x104xi8, strided<[?, ?], offset: ?>>
    %cast_0 = memref.cast %1 : memref<104x104xi8> to memref<104x104xi8, strided<[?, ?], offset: ?>>
    %cast_1 = memref.cast %alloc : memref<104x104xi32> to memref<104x104xi32, strided<[?, ?], offset: ?>>
    %3 = call @matmul104x104(%cast, %cast_0, %cast_1) : (memref<104x104xi8, strided<[?, ?], offset: ?>>, memref<104x104xi8, strided<[?, ?], offset: ?>>, memref<104x104xi32, strided<[?, ?], offset: ?>>) -> memref<104x104xi32, strided<[?, ?], offset: ?>>
    %cast_2 = memref.cast %3 : memref<104x104xi32, strided<[?, ?], offset: ?>> to memref<*xi32>
    call @printMemrefI32(%cast_2) : (memref<*xi32>) -> ()
    return
  }
  func.func private @printMemrefI32(memref<*xi32>)
}

